…
_steps=1000, log_steps=50, eval_steps=250, update_freq=8, patience=10, max_epochs=10, float_dtype=torch.float16, device=device(type='cuda'))

Loading checkpoint shards:   0%|          | 0/2 [00:00<?, ?it/s]
Loading checkpoint shards:  50%|█████     | 1/2 [00:00<00:00,  1.13it/s]
Loading checkpoint shards: 100%|██████████| 2/2 [00:01<00:00,  1.03it/s]
Loading checkpoint shards: 100%|██████████| 2/2 [00:01<00:00,  1.04it/s]
2025-05-22 16:02:29 | INFO | seamlessm4t.model_utils | Will update decoder's ffn_dropout
2025-05-22 16:02:29 | INFO | utils.model_utils | Model:
SeamlessM4Tv2Model(
  (shared): Embedding(256102, 1024, padding_idx=0)
  (text_encoder): SeamlessM4Tv2Encoder(
    (embed_tokens): SeamlessM4Tv2ScaledWordEmbedding(256102, 1024, padding_idx=0)
    (embed_positions): SeamlessM4Tv2SinusoidalPositionalEmbedding()
    (layers): ModuleList(
      (0-23): 24 x SeamlessM4Tv2EncoderLayer(
        (self_attn): SeamlessM4Tv2Attention(
          (k_proj): Linear(in_features=1024, out_features=1024, bias=True)
          (v_proj): Linear(in_features=1024, out_features=1024, bias=True)
          (q_proj): Linear(in_features=1024, out_features=1024, bias=True)
          (out_proj): Linear(in_features=1024, out_features=1024, bias=True)
        )
        (attn_dropout): Dropout(p=0.1, inplace=False)
        (self_attn_layer_norm): LayerNorm((1024,), eps=1e-05, elementwise_affine=True)
        (ffn): SeamlessM4Tv2FeedForwardNetwork(
          (fc1): Linear(in_features=1024, out_features=8192, bias=True)
          (fc2): Linear(in_features=8192, out_features=1024, bias=True)
          (dropout): Dropout(p=0.0, inplace=False)
          (act): ReLU()
        )
        (ffn_layer_norm): LayerNorm((1024,), eps=1e-05, elementwise_affine=True)
        (ffn_dropout): Dropout(p=0.0, inplace=False)
      )
    )
    (layer_norm): LayerNorm((1024,), eps=1e-05, elementwise_affine=True)
  )
  (speech_encoder): None
  (text_decoder): SeamlessM4Tv2Decoder(
    (embed_tokens): SeamlessM4Tv2ScaledWordEmbedding(256102, 1024, padding_idx=0)
    (embed_positions): SeamlessM4Tv2SinusoidalPositionalEmbedding()
    (layers): ModuleList(
      (0-23): 24 x SeamlessM4Tv2DecoderLayer(
        (self_attn): SeamlessM4Tv2Attention(
          (k_proj): Linear(in_features=1024, out_features=1024, bias=True)
          (v_proj): Linear(in_features=1024, out_features=1024, bias=True)
          (q_proj): Linear(in_features=1024, out_features=1024, bias=True)
          (out_proj): Linear(in_features=1024, out_features=1024, bias=True)
        )
        (activation_fn): ReLU()
        (attn_dropout): Dropout(p=0.1, inplace=False)
        (self_attn_layer_norm): LayerNorm((1024,), eps=1e-05, elementwise_affine=True)
        (cross_attention): SeamlessM4Tv2Attention(
          (k_proj): Linear(in_features=1024, out_features=1024, bias=True)
          (v_proj): Linear(in_features=1024, out_features=1024, bias=True)
          (q_proj): Linear(in_features=1024, out_features=1024, bias=True)
          (out_proj): Linear(in_features=1024, out_features=1024, bias=True)
        )
        (cross_attention_layer_norm): LayerNorm((1024,), eps=1e-05, elementwise_affine=True)
        (ffn): SeamlessM4Tv2FeedForwardNetwork(
          (fc1): Linear(in_features=1024, out_features=8192, bias=True)
          (fc2): Linear(in_features=8192, out_features=1024, bias=True)
          (dropout): Dropout(p=0.0, inplace=False)
          (act): ReLU()
        )
        (ffn_layer_norm): LayerNorm((1024,), eps=1e-05, elementwise_affine=True)
        (ffn_dropout): Dropout(p=0.1, inplace=False)
      )
    )
    (layer_norm): LayerNorm((1024,), eps=1e-05, elementwise_affine=True)
  )
  (lm_head): Linear(in_features=1024, out_features=256102, bias=False)
  (t2u_model): None
  (vocoder): None
)
2025-05-22 16:02:29 | INFO | utils.model_utils | Total num params: 1370.53M
2025-05-22 16:02:29 | INFO | utils.model_utils | Trainable num params: 1370.53M
2025-05-22 16:02:29 | INFO | __main__ | Load processor from facebook/seamless-m4t-v2-large
2025-05-22 16:02:33 | INFO | __main__ | Adding __bem__ to tokenizer
…
