…
2025-05-23 14:06:37 | INFO | __main__ | layers.23.ffn_layer_norm.weight.requires_grad -> False
2025-05-23 14:06:37 | INFO | __main__ | layers.23.ffn_layer_norm.bias.requires_grad -> False
2025-05-23 14:06:37 | INFO | __main__ | layer_norm.weight.requires_grad -> False
2025-05-23 14:06:37 | INFO | __main__ | layer_norm.bias.requires_grad -> False
2025-05-23 14:06:37 | INFO | __main__ | Will untie lm head
2025-05-23 14:06:40 | INFO | seamlessm4t.model_utils | Will update decoder's ffn_dropout
2025-05-23 14:06:40 | INFO | seamlessm4t.model_utils | Will update adapter's attention score & ffn dropout
2025-05-23 14:06:40 | INFO | utils.model_utils | Model:
SeamlessM4Tv2Model(
  (shared): Embedding(256102, 1024, padding_idx=0)
  (text_encoder): SeamlessM4Tv2Encoder(
    (embed_tokens): SeamlessM4Tv2ScaledWordEmbedding(256102, 1024, padding_idx=0)
    (embed_positions): SeamlessM4Tv2SinusoidalPositionalEmbedding()
    (layers): ModuleList(
      (0-23): 24 x SeamlessM4Tv2EncoderLayer(
        (self_attn): SeamlessM4Tv2Attention(
          (k_proj): Linear(in_features=1024, out_features=1024, bias=True)
          (v_proj): Linear(in_features=1024, out_features=1024, bias=True)
          (q_proj): Linear(in_features=1024, out_features=1024, bias=True)
          (out_proj): Linear(in_features=1024, out_features=1024, bias=True)
        )
        (attn_dropout): Dropout(p=0.1, inplace=False)
        (self_attn_layer_norm): LayerNorm((1024,), eps=1e-05, elementwise_affine=True)
        (ffn): SeamlessM4Tv2FeedForwardNetwork(
          (fc1): Linear(in_features=1024, out_features=8192, bias=True)
          (fc2): Linear(in_features=8192, out_features=1024, bias=True)
          (dropout): Dropout(p=0.0, inplace=False)
          (act): ReLU()
        )
        (ffn_layer_norm): LayerNorm((1024,), eps=1e-05, elementwise_affine=True)
        (ffn_dropout): Dropout(p=0.0, inplace=False)
      )
    )
    (layer_norm): LayerNorm((1024,), eps=1e-05, elementwise_affine=True)
  )
  (speech_encoder): SeamlessM4Tv2SpeechEncoder(
    (feature_projection): SeamlessM4Tv2ConformerFeatureProjection(
      (layer_norm): LayerNorm((160,), eps=1e-05, elementwise_affine=True)
      (projection): Linear(in_features=160, out_features=1024, bias=True)
      (dropout): Dropout(p=0.0, inplace=False)
    )
    (encoder): SeamlessM4Tv2ConformerEncoder(
      (dropout): Dropout(p=0.0, inplace=False)
      (layers): ModuleList(
        (0-23): 24 x SeamlessM4Tv2ConformerEncoderLayer(
          (ffn1_layer_norm): LayerNorm((1024,), eps=1e-05, elementwise_affine=True)
          (ffn1): SeamlessM4Tv2ConformerFeedForward(
            (intermediate_dropout): Dropout(p=0.0, inplace=False)
            (intermediate_dense): Linear(in_features=1024, out_features=4096, bias=True)
            (intermediate_act_fn): SiLU()
            (output_dense): Linear(in_features=4096, out_features=1024, bias=True)
            (output_dropout): Dropout(p=0.0, inplace=False)
          )
          (self_attn_layer_norm): LayerNorm((1024,), eps=1e-05, elementwise_affine=True)
          (self_attn_dropout): Dropout(p=0.0, inplace=False)
          (self_attn): SeamlessM4Tv2ConformerSelfAttention(
            (linear_q): Linear(in_features=1024, out_features=1024, bias=True)
            (linear_k): Linear(in_features=1024, out_features=1024, bias=True)
            (linear_v): Linear(in_features=1024, out_features=1024, bias=True)
            (linear_out): Linear(in_features=1024, out_features=1024, bias=True)
            (dropout): Dropout(p=0.0, inplace=False)
            (distance_embedding): Embedding(73, 64)
          )
          (conv_module): SeamlessM4Tv2ConformerConvolutionModule(
            (layer_norm): LayerNorm((1024,), eps=1e-05, elementwise_affine=True)
            (pointwise_conv1): Conv1d(1024, 2048, kernel_size=(1,), stride=(1,), bias=False)
            (glu): GLU(dim=1)
            (depthwise_conv): Conv1d(1024, 1024, kernel_size=(31,), stride=(1,), groups=1024, bias=False)
            (depthwise_layer_norm): LayerNorm((1024,), eps=1e-05, elementwise_affine=True)
            (activation): SiLU()
            (pointwise_conv2): Conv1d(1024, 1024, kernel_size=(1,), stride=(1,), bias=False)
            (dropout): Dropout(p=0.0, inplace=False)
          )
          (ffn2_layer_norm): LayerNorm((1024,), eps=1e-05, elementwise_affine=True)
          (ffn2): SeamlessM4Tv2ConformerFeedForward(
            (intermediate_dropout): Dropout(p=0.0, inplace=False)
            (intermediate_dense): Linear(in_features=1024, out_features=4096, bias=True)
            (intermediate_act_fn): SiLU()
            (output_dense): Linear(in_features=4096, out_features=1024, bias=True)
            (output_dropout): Dropout(p=0.0, inplace=False)
          )
          (final_layer_norm): LayerNorm((1024,), eps=1e-05, elementwise_affine=True)
        )
      )
      (layer_norm): LayerNorm((1024,), eps=1e-05, elementwise_affine=True)
    )
    (intermediate_ffn): SeamlessM4Tv2ConformerFeedForward(
      (intermediate_dropout): Dropout(p=0.0, inplace=False)
      (intermediate_dense): Linear(in_features=1024, out_features=4096, bias=True)
      (intermediate_act_fn): ReLU()
      (output_dense): Linear(in_features=4096, out_features=1024, bias=True)
      (output_dropout): Dropout(p=0.0, inplace=False)
    )
    (adapter): SeamlessM4Tv2ConformerAdapter(
      (layers): ModuleList(
        (0): SeamlessM4Tv2ConformerAdapterLayer(
          (residual_layer_norm): LayerNorm((1024,), eps=1e-05, elementwise_affine=True)
          (residual_conv): Conv1d(1024, 2048, kernel_size=(8,), stride=(8,), padding=(4,))
          (activation): GLU(dim=1)
          (self_attn_layer_norm): LayerNorm((1024,), eps=1e-05, elementwise_affine=True)
          (self_attn_conv): Conv1d(1024, 2048, kernel_size=(8,), stride=(8,), padding=(4,))
          (self_attn): SeamlessM4Tv2ConformerSelfAttention(
            (linear_q): Linear(in_features=1024, out_features=1024, bias=True)
            (linear_k): Linear(in_features=1024, out_features=1024, bias=True)
            (linear_v): Linear(in_features=1024, out_features=1024, bias=True)
            (linear_out): Linear(in_features=1024, out_features=1024, bias=True)
            (dropout): Dropout(p=0.1, inplace=False)
          )
          (self_attn_dropout): Dropout(p=0.1, inplace=False)
          (ffn_layer_norm): LayerNorm((1024,), eps=1e-05, elementwise_affine=True)
          (ffn): SeamlessM4Tv2ConformerFeedForward(
            (intermediate_dropout): Dropout(p=0.0, inplace=False)
            (intermediate_dense): Linear(in_features=1024, out_features=4096, bias=True)
            (intermediate_act_fn): ReLU()
            (output_dense): Linear(in_features=4096, out_features=1024, bias=True)
            (output_dropout): Dropout(p=0.1, inplace=False)
          )
        )
      )
    )
    (inner_layer_norm): LayerNorm((1024,), eps=1e-05, elementwise_affine=True)
  )
  (text_decoder): SeamlessM4Tv2Decoder(
    (embed_tokens): SeamlessM4Tv2ScaledWordEmbedding(256102, 1024, padding_idx=0)
    (embed_positions): SeamlessM4Tv2SinusoidalPositionalEmbedding()
    (layers): ModuleList(
      (0-23): 24 x SeamlessM4Tv2DecoderLayer(
        (self_attn): SeamlessM4Tv2Attention(
          (k_proj): Linear(in_features=1024, out_features=1024, bias=True)
          (v_proj): Linear(in_features=1024, out_features=1024, bias=True)
          (q_proj): Linear(in_features=1024, out_features=1024, bias=True)
          (out_proj): Linear(in_features=1024, out_features=1024, bias=True)
        )
        (activation_fn): ReLU()
        (attn_dropout): Dropout(p=0.1, inplace=False)
        (self_attn_layer_norm): LayerNorm((1024,), eps=1e-05, elementwise_affine=True)
        (cross_attention): SeamlessM4Tv2Attention(
          (k_proj): Linear(in_features=1024, out_features=1024, bias=True)
          (v_proj): Linear(in_features=1024, out_features=1024, bias=True)
          (q_proj): Linear(in_features=1024, out_features=1024, bias=True)
          (out_proj): Linear(in_features=1024, out_features=1024, bias=True)
        )
        (cross_attention_layer_norm): LayerNorm((1024,), eps=1e-05, elementwise_affine=True)
        (ffn): SeamlessM4Tv2FeedForwardNetwork(
          (fc1): Linear(in_features=1024, out_features=8192, bias=True)
          (fc2): Linear(in_features=8192, out_features=1024, bias=True)
          (dropout): Dropout(p=0.0, inplace=False)
          (act): ReLU()
        )
        (ffn_layer_norm): LayerNorm((1024,), eps=1e-05, elementwise_affine=True)
        (ffn_dropout): Dropout(p=0.1, inplace=False)
      )
    )
    (layer_norm): LayerNorm((1024,), eps=1e-05, elementwise_affine=True)
  )
  (lm_head): Linear(in_features=1024, out_features=256102, bias=False)
  (t2u_model): None
  (vocoder): None
)
2025-05-23 14:06:40 | INFO | utils.model_utils | Total num params: 2530.08M
2025-05-23 14:06:40 | INFO | utils.model_utils | Trainable num params: 1764.09M
2025-05-23 14:06:40 | INFO | __main__ | Load processor from /scratch/cmeng2/experiments/iwslt2025-lres-st-os-seamless/bem-eng/bigc/ckpts/v2_MT_tc-punc_lr1e-4_warmup1000_epoch10_bsz256_freq8_max128_p10x250_proc
…
