…
0, eval_steps=250, update_freq=8, patience=10, max_epochs=10, float_dtype=torch.float16, device=device(type='cuda'))
2025-05-22 16:27:47 | INFO | utils.model_utils | Model:
M2M100ForConditionalGeneration(
  (model): M2M100Model(
    (shared): M2M100ScaledWordEmbedding(256206, 1024, padding_idx=1)
    (encoder): M2M100Encoder(
      (embed_tokens): M2M100ScaledWordEmbedding(256206, 1024, padding_idx=1)
      (embed_positions): M2M100SinusoidalPositionalEmbedding()
      (layers): ModuleList(
        (0-23): 24 x M2M100EncoderLayer(
          (self_attn): M2M100SdpaAttention(
            (k_proj): Linear(in_features=1024, out_features=1024, bias=True)
            (v_proj): Linear(in_features=1024, out_features=1024, bias=True)
            (q_proj): Linear(in_features=1024, out_features=1024, bias=True)
            (out_proj): Linear(in_features=1024, out_features=1024, bias=True)
          )
          (self_attn_layer_norm): LayerNorm((1024,), eps=1e-05, elementwise_affine=True)
          (activation_fn): ReLU()
          (fc1): Linear(in_features=1024, out_features=8192, bias=True)
          (fc2): Linear(in_features=8192, out_features=1024, bias=True)
          (final_layer_norm): LayerNorm((1024,), eps=1e-05, elementwise_affine=True)
        )
      )
      (layer_norm): LayerNorm((1024,), eps=1e-05, elementwise_affine=True)
    )
    (decoder): M2M100Decoder(
      (embed_tokens): M2M100ScaledWordEmbedding(256206, 1024, padding_idx=1)
      (embed_positions): M2M100SinusoidalPositionalEmbedding()
      (layers): ModuleList(
        (0-23): 24 x M2M100DecoderLayer(
          (self_attn): M2M100SdpaAttention(
            (k_proj): Linear(in_features=1024, out_features=1024, bias=True)
            (v_proj): Linear(in_features=1024, out_features=1024, bias=True)
            (q_proj): Linear(in_features=1024, out_features=1024, bias=True)
            (out_proj): Linear(in_features=1024, out_features=1024, bias=True)
          )
          (activation_fn): ReLU()
          (self_attn_layer_norm): LayerNorm((1024,), eps=1e-05, elementwise_affine=True)
          (encoder_attn): M2M100SdpaAttention(
            (k_proj): Linear(in_features=1024, out_features=1024, bias=True)
            (v_proj): Linear(in_features=1024, out_features=1024, bias=True)
            (q_proj): Linear(in_features=1024, out_features=1024, bias=True)
            (out_proj): Linear(in_features=1024, out_features=1024, bias=True)
          )
          (encoder_attn_layer_norm): LayerNorm((1024,), eps=1e-05, elementwise_affine=True)
          (fc1): Linear(in_features=1024, out_features=8192, bias=True)
          (fc2): Linear(in_features=8192, out_features=1024, bias=True)
          (final_layer_norm): LayerNorm((1024,), eps=1e-05, elementwise_affine=True)
        )
      )
      (layer_norm): LayerNorm((1024,), eps=1e-05, elementwise_affine=True)
    )
  )
  (lm_head): Linear(in_features=1024, out_features=256206, bias=False)
)
2025-05-22 16:27:47 | INFO | utils.model_utils | Total num params: 1370.64M
2025-05-22 16:27:47 | INFO | utils.model_utils | Trainable num params: 1370.64M
2025-05-22 16:27:49 | INFO | nllb.trainer | Start Finetuning
2025-05-22 16:27:49 | INFO | nllb.trainer | Evaluation Step 0...
2025-05-22 16:27:55 | INFO | nllb.trainer | Eval after 0 updates: loss=4.9630 best_loss=4.9630 patience_steps_left=10
…
